Assignment3/ExpertAgent/actor_0.pkl (npy, 80128 bytes, 1 tensors)

array f8 [10, 10, 10, 10]
-0.004749571629725364 0.004641003870045861 0.008555796398921572 0.006309176033384054 0.0009089844199490459 0.007815759840801123 -0.0014636901242370323 0.0059795453216701915
-6.504222888290175e-05 -0.006845269173503001 -0.009693142650850948 -0.00882732540754612 -0.0076701252107669714 0.006114236781784162 -0.001058022598104065 -0.16049755300483698
0.008859073122865572 -0.0002632100457452217 0.0009520671077751647 -0.002677319651741201 0.0074590980367751445 -0.007516796280219669 0.00870615783243126 0.009749721664238093
-0.0011785402004297826 -0.24361864544302891 0.0026099994654888757 0.00350684860772648 -0.0011395514452665796 0.005961267996394898 -0.008961923529754928 0.0037700340189867326
-0.0005256486593474899 -0.0009879072269761771 -0.007247050976082727 0.007446180224863005 0.005923495433543884 5.995108032894568e-05 -0.002727049806644604 -0.008306256690102088
-0.0076202827996653235 -0.007831929602972796 -0.00508557150583356 -0.005994353036326858 0.006911241124125332 -0.0038760045764844784 0.007787461539234801 0.00019671655498077495
0.005749541440921409 0.003810823516586681 -0.00030917360851293735 -0.008728828788817696 0.006518152938358885 -0.007049123429319784 -0.006320649049663252 0.00880171846756681
-0.0019240555853380842 0.003506173027200553 -0.00922624499419847 0.008030197974855812 -0.007368943600942193 -0.0058905970666860916 0.0037616084298283912 0.007291759209379198
0.0013150992673589944 0.004766821531862388 -0.00694493367091397 -0.002212753509318946 -0.0007231570300518086 0.0018375970300105269 -0.002672109375683447 -0.009520574606614193
-0.0033647929899276695 0.00306196559229357 0.006562256233461352 0.0024720620676847212 0.006084235222606964 0.00014690674192390982 -0.0009268002714182233 -0.007889885333590514
-0.002137695540586815 -0.00838053666711439 -0.0022270245203628233 -0.0020033049395872665 0.00840628968815293 0.006693205535076246 -0.009899433667024376 -0.008949663517194714
0.002032299148351919 -0.0023050216891798755 -0.0010526726637076472 0.0007310660968168192 -0.005977134630910242 -0.0066908125274163545 -0.005786174876095458 0.006869484929262834
0.007745007722367784 -0.005623231785061799 -0.008128482113143624 0.002830562503548734 -0.00949848326218027 0.009513032307657715 0.003135640738473557 -0.005536644521579349
-0.006080239730806935 -0.005015644571662546 -0.008452134206336035 -0.0019481185632064316 -0.008306668957316663 0.005528121820734344 0.0016757252654150696 0.005352583517341452
-0.0030917440994569327 -1.4353319384851834e-05 0.0006091202337351786 0.15701053823552644 0.007975281274233366 -0.0036015682947042075 0.0025639302939782227 0.0021126970543321414
-0.0036937400721962542 0.006239645522887043 -0.00846867448926233 0.003423949120595562 -0.0017800233645671678 0.2471737326761025 -0.006314366179904472 -0.0029179316958296876
0.0043142772380108645 -0.0018722890163159287 -0.002605687151110257 0.0029042645965209977 0.007058043030979887 -0.005597061082936752 -0.005059117291035733 -0.007256831374923462
-0.009715800727130184 0.005704458929173225 -0.0017260431901177913 -0.007281038257106132 0.00016420171262689423 -0.005619524082076415 0.009677070509185008 -0.0004836963285921852
-0.0017476057741246686 0.01028926401982797 0.001734853476313407 0.0046707899903742755 0.007893347158073638 0.0021328419936119287 0.009704944067299949 -0.009147626588859004
0.005812886519295136 0.002032929721617784 -0.0031444824918826428 -0.0003606399493804664 -0.002259956905236202 0.0032269808464010716 -0.0031058062096301128 0.004342501090141296
-5.075576991245452e-05 -0.009396437317894248 -0.008636490341846428 -0.006986327977979991 0.0004903021988938229 0.0036336814864992547 -0.002877805609098405 -0.007225025895177362
-0.007992041748667068 -0.009376750341956555 -5.5127836318523415e-05 0.0057626050640161765 0.0006226094891354905 0.008103981207839115 0.0051645536132133504 -0.007113616481501328
-0.02198650188511652 -0.005818633128384303 0.0025293668583505034 -0.0007353237075093839 -8.25737141595239e-05 -0.003044840268325795 -0.009925856960707618 0.0027690713993167027
0.009435072406568922 0.0023488861987609674 0.030517669432110206 0.008306011306218532 0.0005767877831592497 -0.009959092856239386 -0.007187790441343287 0.008670865583013452
-0.00647193013679394 -0.008237414747267887 0.007049427747732468 0.0027617779560585014 0.006335687218800036 0.013021549440508805 0.0026945751422934334 -0.003123166391849723
-0.008337771318514113 -0.003907634140111747 0.0019630411864259745 -0.007764356244943952 -0.0076730585318486935 -0.006456605328545808 0.007932566658197934 0.005934479838803566
-0.00878566347755244 0.006181236722351801 0.00669903403122187 0.0005347464557203391 0.0033912483214855655 -0.004372603821149695 -0.006500037479733795 0.003677408432162339
-0.00940400042021729 0.005006354716564708 0.002580359023349804 0.002700653919186384 -0.0038506454065624805 0.007710544731311447 0.0034554341817304504 0.009168445073171168
-0.0022988329435369576 0.001494354731919824 0.009624644008737587 0.002762362369227502 0.009008725913851367 -0.0034529505171702014 0.0056546883092670076 -0.008272454977638706
0.002989702071758875 0.002313912412517921 0.00749715456223856 0.004190005251871784 0.006582848003773416 -0.009585968938786747 -0.0006886794544058543 0.0026911823571606104
-0.0019161078120419756 0.004616720050630843 0.009629705764275328 0.002638864806332096 0.005651237483270479 0.0012643821172555944 0.00023730458591049615 0.007482009188783471
0.0034356759900326054 0.0020422989236858063 0.004682841935451366 0.008490792876779377 0.005456009570984648 0.004465789019368654 -0.007870388550177347 0.00438879272452135
00000000: a168 1d6d 4974 73bf 92b3 7afd 7102 733f
00000010: 83fc cb8d b385 813f 4a43 a68b a6d7 793f
00000020: e0c0 992d 1dc9 4d3f 9dec 4687 b501 803f
00000030: 18cf c34d 29fb 57bf ded6 9ff9 017e 783f
00000040: 8018 d0fb e80c 11bf dc5e b8f3 c809 7cbf
00000050: b26a 7295 ffd9 83bf 6913 7e8f 0f14 82bf
00000060: 2ec7 fb8e b56a 7fbf 22c2 48f0 3d0b 793f
00000070: 202c 441d ab55 51bf e234 9f0e 2f8b c4bf
00000080: af44 afaa b424 823f a025 d889 ee3f 31bf
00000090: 80ff b58b 8432 4f3f c29a 0b0b bfee 65bf
000000a0: 8a7c 0262 6e8d 7e3f 3b99 1ba3 eec9 7ebf
000000b0: 1317 50b9 88d4 813f 5d46 8b7d a9f7 833f
000000c0: e022 8be7 274f 53bf 10d3 6f51 e52e cfbf
000000d0: ca69 19cb 9061 653f 7073 a102 65ba 6c3f
000000e0: 5040 210c a0ab 52bf ba33 65b1 d76a 783f
000000f0: 96a3 c103 a15a 82bf 7c95 1f9a 55e2 6e3f
00000100: 40e9 89e6 7539 41bf 205a ce4e 952f 50bf
00000110: 299d f46e 15af 7dbf 960a bcc8 e27f 7e3f
00000120: 1227 a432 3c43 783f 00f3 5a6f 7f6e 0f3f
00000130: d8c2 7db7 0957 66bf ba79 b0e6 de02 81bf
00000140: 8dc6 9216 7236 7fbf 1f22 13cc 2f0a 80bf
00000150: 08ce c8b4 9bd4 74bf d7f8 06e4 888d 78bf
00000160: 7e6e a529 f64e 7c3f ab0b a51c 92c0 6fbf
00000170: ebf3 13ca bee5 7f3f d3a0 2757 b6c8 293f
00000180: e2c4 4ac7 d48c 773f 0075 fc4b e037 6f3f
00000190: 80ba 8f89 1243 34bf 1e5e 7191 6be0 81bf
000001a0: fa90 355b c7b2 7a3f 36a5 82a9 8adf 7cbf
000001b0: 1a23 534f aee3 79bf f300 bca7 a206 823f
000001c0: df42 24f4 1286 5fbf cad9 8c4f fab8 6c3f
000001d0: 91a6 1ea4 35e5 82bf f993 75ed 2272 803f
000001e0: 7695 5abc e52e 7ebf 38d5 151c bd20 78bf
000001f0: b891 f725 aad0 6e3f 8a7b 5ab5 f6dd 7d3f
00000200: b804 0916 ed8b 553f 1c0d 5de9 5f86 733f
00000210: f7d8 d46f 4a72 7cbf 20bf 9cfe 7a20 62bf
00000220: 70fd 9fe5 47b2 47bf 2872 6ac9 701b 5e3f
00000230: 5c1a 28cc d1e3 65bf 58a6 98e4 857f 83bf
00000240: 3882 2f7b 7b90 6bbf 3475 9242 6815 693f
00000250: 422e 923e 06e1 7a3f 4c1b 8037 4a40 643f
00000260: 2b17 d674 c8eb 783f 7c57 e34d 5f41 233f
00000270: e16f 866d 905e 4ebf 17d1 d07b 9228 80bf
00000280: b4a4 f08d 1283 61bf 93f6 4397 d029 81bf
00000290: f065 6faf 683e 62bf 60d5 6126 3c69 60bf
000002a0: fd9e 541a 5137 813f 8693 0eae 556a 7b3f
000002b0: f652 ca7e 2746 84bf b8b4 ee80 3354 82bf
000002c0: 286e 174c 0aa6 603f ccee b018 fbe1 62bf
000002d0: 7843 7faa 3a3f 51bf 70bb 0f7d a0f4 473f
000002e0: a77e 37dc 7a7b 78bf 249e d24f d367 7bbf
000002f0: 08cc c97d 3eb3 77bf 56e7 c851 2d23 7c3f
00000300: 2a55 ffad 3ab9 7f3f 3fae d5c9 6208 77bf
00000310: af90 bc66 aaa5 80bf f48d 39ac 1e30 673f
00000320: fb05 c8d7 f073 83bf 636d 2d95 917b 833f
00000330: 845a 8f4d eaaf 693f a76b 65b2 97ad 76bf
00000340: 6601 bbec 97e7 78bf 4b5a 75d6 488b 74bf
00000350: 321e fb3f 5a4f 81bf 2008 2261 00eb 5fbf
00000360: b23e 153c 1603 81bf e68d dae6 a7a4 763f
00000370: 880a 924d 8074 5b3f 6c58 7f32 97ec 753f
00000380: 58be 6e79 db53 69bf 004c f231 e119 eebe
00000390: a34c dabd abf5 433f 2faa 6cdb eb18 c43f
000003a0: 246e fe21 5855 803f 8636 4841 0981 6dbf
000003b0: 8028 6198 f300 653f f499 2698 a54e 613f
000003c0: 0a95 eb99 5542 6ebf 12d6 5917 be8e 793f
000003d0: ed59 c63f 0658 81bf 6c43 e0af 8a0c 6c3f
000003e0: e57d c388 f529 5dbf ee15 238d 63a3 cf3f
000003f0: a472 cdc3 17dd 79bf 48de 93a6 58e7 67bf
00000400: be46 4afa d8ab 713f 28c9 ff05 f3ac 5ebf
00000410: 7cc0 1fa3 8558 65bf 946a c02e afca 673f
00000420: f27d deff e4e8 7c3f dcfb e0a4 f1ec 76bf
00000430: 296c fc74 deb8 74bf d49b d8d6 56b9 7dbf
00000440: bf12 05b3 e0e5 83bf d6be ac08 8f5d 773f
00000450: 78ff 64c3 8c47 5cbf 8085 1fd3 b8d2 7dbf
00000460: 8002 abf8 b185 253f dff6 6c82 7f04 77bf
00000470: cf41 dd6a 92d1 833f e083 99e9 13b3 3fbf
00000480: 8ac9 5a69 fda1 5cbf f376 b8a3 8912 853f
00000490: e16d 6cbc 806c 5c3f 6e0f 15a4 ad21 733f
000004a0: 33ff 321f 632a 803f a8ed 85d3 e478 613f
000004b0: c74b 078b 2fe0 833f ed06 48a8 fdbb 82bf
000004c0: 8e84 eed7 40cf 773f 84d8 6bd5 5ca7 603f
000004d0: 7037 e52e 75c2 69bf 87cc c8c9 88a2 37bf
000004e0: 478e f21f 7983 62bf 304f 6726 786f 6a3f
000004f0: 4c6e 2303 5971 69bf 50d8 a342 71c9 713f
00000500: 0051 90f9 529c 0abf 618b d577 703e 83bf
00000510: 3b48 901c 02b0 81bf c2ee f322 b29d 7cbf
00000520: 3f69 67f4 f310 403f 3a4a c1e4 61c4 6d3f
00000530: 9ad8 351f 3293 67bf f4ae eb1e fd97 7dbf
00000540: 3aa5 82af 215e 80bf dbde 7d20 1e34 83bf
00000550: 00ec 5e08 22e7 0cbf 96aa a284 879a 773f
00000560: 701f 6fb2 d366 443f df60 0af2 d198 803f
00000570: 9802 e04d 6d27 753f 0032 4fe2 2a23 7dbf
00000580: de37 332a a183 96bf 2cbd e66f 47d5 77bf
00000590: 385d f57d 77b8 643f a0ff 4aa3 5718 48bf
000005a0: 80db 779b 6da5 15bf 76d5 f72b 7ef1 68bf
000005b0: d683 3ff8 0154 84bf 001a 36e3 29af 663f
000005c0: b972 5ffb b152 833f 3087 fbac f83d 633f
000005d0: e0ea a420 0640 9f3f 7402 5df7 bd02 813f
000005e0: d0de 2b55 72e6 423f ef49 ecd0 6e65 84bf
000005f0: d762 04ce f170 7dbf 853f dbe0 07c2 813f
00000600: 12f1 7884 4f82 7abf f179 8b17 c7de 80bf
00000610: 2ec7 1c5a dcdf 7c3f 3cb2 0040 de9f 663f
00000620: db5b 7016 73f3 793f f9fe ebc7 0aab 8a3f
00000630: 04c5 9b03 ef12 663f f02c 6a30 c195 69bf
00000640: 498c 13b9 6413 81bf 7e5b 628d 7301 70bf
00000650: e9e9 48b6 cb14 603f 5e2d 5882 84cd 7fbf
00000660: c8f9 45f7 c86d 7fbf 4325 abcb 3d72 7abf
00000670: eb5f f612 f33e 803f 7611 39cd c04e 783f
00000680: df5d 7aca 37fe 81bf 6630 2419 7f51 793f
00000690: 1621 4341 7270 7b3f 80fe fc44 c785 413f
000006a0: 6dc6 4494 f6c7 6b3f 9330 90e6 01e9 71bf
000006b0: 6127 5f86 c89f 7abf dcce 679e 1520 6e3f
000006c0: 4a1d 0d92 6742 83bf 5825 7a1c 8b81 743f
000006d0: 8c50 c0b3 6723 653f f0d0 5788 ae1f 663f
000006e0: 66a5 de82 638b 6fbf c605 4997 1795 7f3f
000006f0: 1079 ba19 924e 6c3f 449e f4dd e7c6 823f
00000700: 2078 f789 00d5 62bf d425 f12c c77b 583f
00000710: 237e 06da 15b6 833f 8416 2301 18a1 663f
00000720: f9cf 6db9 2a73 823f f670 78b1 5c49 6cbf
00000730: 32cf b7d5 5e29 773f 7156 b11c 26f1 80bf
00000740: 2484 ef13 dc7d 683f 59ff 6644 a0f4 623f
00000750: 98a4 861a 56b5 7e3f 3002 6ef8 8929 713f
00000760: 927e 40ce 9df6 7a3f 9290 bdf8 cea1 83bf
00000770: 60ff f6dd 0f91 46bf 283d c586 d10b 663f
00000780: c067 da18 bd64 5fbf f6ae 1d5a fbe8 723f
00000790: f10e 9f3a bdb8 833f b01c 56c1 199e 653f
000007a0: 1cdf c282 c025 773f dbf8 f7f5 33b7 543f
000007b0: 40fa 10df 9e1a 2f3f de1b 638c 74a5 7e3f
000007c0: 34f9 8980 2225 6c3f 2095 bfe2 02bb 603f
000007d0: b40d 71cf 502e 733f d573 c8ed 9e63 813f
000007e0: 52e0 c86a 0a59 763f ecd7 9f1c b84a 723f
000007f0: dc47 70ab 591e 80bf b228 8893 fbf9 713f
