Assignment3/ExpertAgent/actor_1.pkl (npy, 80128 bytes, 1 tensors)

array f8 [10, 10, 10, 10]
00000000: 4aa5 02ac 04ee 763f 9ea8 abf2 93ec 63bf
00000010: 63aa bd31 a5b6 823f 940b 5fca 41df 6cbf
00000020: 0e9b 4286 a412 793f fae5 8507 abf8 733f
00000030: cd92 ab99 5cc7 76bf 004d dacf df6f 1ebf
00000040: f0af 47ea 3ade 483f 2a84 ccbb 6384 7e3f
00000050: b6b9 232a cee4 77bf ae01 9dcd 279f 793f
00000060: 4542 90c4 d8d3 80bf 2eaa 489e 1227 6cbf
00000070: 02f7 9ddd 025c 7ebf 9b46 6bcc 681b c63f
00000080: 5789 6048 24be 833f 2df4 af5d eee0 82bf
00000090: 3891 92a8 76b5 6b3f 7839 48cf f3a7 59bf
000000a0: f8d6 50fa f76a 56bf b1bb 012c 5f49 72bf
000000b0: cadc a190 783a 703f e814 3fb1 4736 583f
000000c0: 487b 548d fa44 633f 293e 9da7 65ce ce3f
000000d0: 1318 6863 2ee5 7cbf b3aa 60e6 a2ca 82bf
000000e0: e0f4 412f f9b4 563f be55 d2c6 096f 71bf
000000f0: 546a b182 8c7f 643f d952 3e54 bca1 823f
00000100: 406c dddc 14c2 2abf 60a4 a43d 6c15 39bf
00000110: 002f dee8 119e 2b3f 8c2a 966c e5cd 67bf
00000120: 9240 542d 5a45 783f b4e7 0d75 c686 703f
00000130: 8248 081c 5f62 703f 53b3 418e 3f3d 803f
00000140: 400c a00b 19b4 223f b0dd 3fd0 90c8 433f
00000150: eab2 78c2 96cd 783f 75fc 4fb9 fc15 83bf
00000160: 428a e517 ad64 793f 56be f60d 6bcd 503f
00000170: 1dea d0f5 5005 64bf aa56 27f4 7552 38bf
00000180: 52ec a229 b832 6abf 0a9e d1fc 07e3 703f
00000190: efe4 d595 e265 813f a4a6 84a5 b208 723f
000001a0: 57cf 7b4d 9629 7bbf 2439 2967 1099 62bf
000001b0: b893 ff62 a9a9 703f 86ba 1de7 bed4 5abf
000001c0: e8bd d4de 9444 77bf a92b 33bb c883 7e3f
000001d0: d793 202d 52f5 71bf 31e9 7bf4 3412 72bf
000001e0: 6653 2469 4f6f 793f 2001 bd58 eb2f 5ebf
000001f0: d83f fccc a946 593f b25c dfe2 4097 7b3f
00000200: 686b 40dd d7e4 81bf 00f3 a0a0 46f4 22bf
00000210: c3cc a174 ba4f 743f 7b7a 658c 8d3e 733f
00000220: 4ea4 b9ef 0aec 7f3f 6725 618e 20d9 833f
00000230: 72c2 cfee b4ea 7b3f f7ec 2841 bd5c 83bf
00000240: 60c4 c4d1 c757 473f 7407 cd21 0fc2 663f
00000250: 8007 7554 3e94 7bbf cd51 638d ed35 843f
00000260: b9af 7030 edb5 4abf f26b 1e73 c874 7ebf
00000270: 9070 75e3 cfad 833f 66c5 3fde 5e35 7b3f
00000280: 84c9 c00f f40d 6c3f 988f f4e6 eb1c 5f3f
00000290: 9490 5976 569d 6a3f f638 32a4 8b33 77bf
000002a0: 06e7 e8eb 732d 773f 541e 80f1 af9b 7ebf
000002b0: ff94 71b4 ce38 613f f626 9bc7 d1f3 0e3f
000002c0: 6ca2 866f e65d 7cbf 32a3 ed7f 1527 7c3f
000002d0: 5046 926c aa3c 5f3f 5419 303c 8062 703f
000002e0: 00a0 af76 8067 633f 09ba 2cd0 83ae 80bf
000002f0: 80d7 0e3f 08a5 61bf 48e8 f8a3 f4b8 7fbf
00000300: 9009 b133 c357 643f 4f75 de90 c678 833f
00000310: 0ab9 ced3 7bb3 803f fb6d 47e6 1d02 7dbf
00000320: 88ec d74f 5138 58bf 9444 78d5 8fc7 653f
00000330: 0e16 26c6 cbf6 7b3f cf96 3bb8 89a9 77bf
00000340: e356 7ba5 46e0 62bf 7ef1 d1e2 c93d 3a3f
00000350: 5cb9 6074 0768 75bf f88f a6b0 5a29 723f
00000360: f675 52ad 479b 7e3f fa51 3816 e22c 793f
00000370: 9e38 d880 da3c 81bf 2424 0ccf b76f 77bf
00000380: 40ec 29ce 2c3f 283f c296 d6c0 2fa2 6cbf
00000390: 9822 7dc6 0444 743f 61a7 040f 231d c3bf
000003a0: 2490 d9e2 cd7c 50bf 74b4 cb92 1a3a 753f
000003b0: 1622 20d5 d584 783f 7a5f 5103 0e41 7f3f
000003c0: 6cbc d3e9 7cc6 633f e6a5 4ede 12a6 763f
000003d0: 3dd2 b01c cccb 813f dc4d c7ac a775 613f
000003e0: 8d2e 2150 d334 5f3f 67c8 5f2b 752d d0bf
000003f0: f20a b1fb f425 7e3f 1733 ae44 ef44 7dbf
00000400: a894 2356 a6a4 80bf 3053 2545 650e 683f
00000410: a40e 21ef 00bb 6e3f f257 a904 48bc 7b3f
00000420: e847 73d2 94d4 673f 31fa 3a70 9646 73bf
00000430: de0a 087d beb1 71bf d358 ca4c 96eb 7f3f
00000440: aa5d adba 76c3 57bf b8d4 f7e8 1d54 75bf
00000450: ab78 b2ff 3623 813f 5892 ead0 83c2 6bbf
00000460: aa1a 4896 e86a 7e3f cca6 5956 125e 81bf
00000470: 78b7 b6df e200 5cbf a966 5a54 8001 7fbf
00000480: fd04 9eb3 12f6 653f f252 6f81 c0d1 80bf
00000490: d391 c1d9 2057 803f 57c3 5b14 7442 7abf
000004a0: c0ae e706 204f 7dbf c5b6 7230 079b 823f
000004b0: 800b d043 2ad7 1b3f 10b5 f2e4 f0f3 6b3f
000004c0: cd0d 6ce2 f697 813f 1261 ec34 51fd 7b3f
000004d0: 86a1 6da0 d320 7ebf 35a0 0608 9afb 823f
000004e0: c16d f3d0 d0a4 71bf de1f d17f 336d 783f
000004f0: 2391 974a 5bb1 81bf e270 48c9 d964 6cbf
00000500: e976 f0e2 cf2e 78bf 43ee ce3d 8215 84bf
00000510: 8e8d 63e4 31f1 793f 50ff c028 e541 55bf
00000520: 4687 884b bf4d 81bf c930 a335 ff31 4cbf
00000530: 46e2 24bd bd6e 6f3f 4f1f c9eb fb54 84bf
00000540: 2e4b 69a6 8f52 79bf c6e3 c47d c51e 783f
00000550: df1b d0cb 4689 803f 408e cec3 fc4d 4c3f
00000560: b36b 0d23 406e 74bf 6224 0636 0632 753f
00000570: ec92 ffb3 89d1 79bf da09 fbd4 8285 64bf
00000580: c5cc 2bf4 e861 993f d0c3 c63f c129 443f
00000590: 0ee3 21ef 28f4 793f 24a7 88b6 6ad4 6f3f
000005a0: 74fc c9c2 2aac 723f 80cb 91cf a65e 603f
000005b0: 596d 7f86 6263 833f 5c33 3914 3214 6a3f
000005c0: 3ec0 6b57 f2d1 7d3f 2ada 1ac6 4fc0 7abf
000005d0: fbc0 a82e 1ebe 9fbf e51a 7256 a372 753f
000005e0: 981c b6c7 1eb5 6c3f 8e4e 9b20 c0a0 7e3f
000005f0: 3e97 b0e0 4936 74bf e4c3 423d 3d83 76bf
00000600: c2cb e658 4fb1 6abf 2001 e9b6 0ee1 693f
00000610: 71aa b8ca ffc2 77bf 415e f17b eb63 48bf
00000620: 7523 dd57 45fd 5a3f 8947 2612 8acc 613f
00000630: 8c8f 6284 f4d7 693f 389b 3cb8 d87b 753f
00000640: b417 c7a7 d536 68bf 8e27 928c 3bca 7c3f
00000650: b2af 315c b18e 75bf 091b 1ba5 f0d1 4d3f
00000660: 15ad 3f59 29c9 643f 86fc e509 a874 59bf
00000670: fc56 204a ac36 61bf 30d3 1311 659c 6d3f
00000680: a995 d0d1 6b9a 70bf 6ada 9955 2b09 753f
00000690: d7ae 6e71 29b1 72bf 6742 e0ab 3bfc 73bf
000006a0: 8314 8367 5c87 6d3f 226a 3a92 de71 823f
000006b0: 4003 4fd5 3975 78bf 60b8 86af 4fa6 363f
000006c0: e844 f521 cad7 683f b86d 9250 ca04 77bf
000006d0: bbe9 1bb7 7d6c 83bf 2478 30b4 e3b1 64bf
000006e0: 808e 3dd9 3e2f 68bf 30f9 bb62 7f44 753f
000006f0: c8f8 a20b 9d92 63bf b8b2 fdc7 a53c 83bf
00000700: 3ae7 d76d ee74 7b3f 18c4 a3ad 1996 423f
00000710: 50e9 f541 601d 5d3f 1000 041f 10f6 4abf
00000720: 9ea1 1559 fde1 753f fde9 4ed9 2756 833f
00000730: ec30 2240 121f 763f b8e5 6a19 412a 56bf
00000740: b84b 72f0 f92d 663f f143 127a ef5a 7e3f
00000750: 6ccb da5a 5b46 69bf 4ec5 520b 9b16 79bf
00000760: 0918 ae4a 1dc9 813f aaad 944f 3770 793f
00000770: 2459 d8ee 9aa9 74bf c09a 8922 4a91 4cbf
00000780: 329d c03b 7451 773f 56bc 00a3 c504 7d3f
00000790: 9850 f526 82e3 663f 9499 978d 8d57 693f
000007a0: 3a03 f887 d757 7ebf a170 29b1 26d4 793f
000007b0: da05 d715 0594 7e3f 66d3 99b2 e902 67bf
000007c0: a022 e797 e69a 46bf e360 b96b 5970 843f
000007d0: 60b2 0092 0301 4fbf a45b e317 67af 65bf
000007e0: 90a0 ee9e d7c2 50bf 3010 cdbb be15 5dbf
000007f0: 229e 298c e47b 513f 94ac 6f4f 7b4b 79bf
0.005598085641545689 -0.0024321450813334497 0.009137430744620539 -0.0035244259806587828 0.0061212946640469956 0.004875820239584433 -0.005561219901868153 -0.00011610797442989165
0.0007589137717878263 0.007450475296338724 -0.0058334401421533035 0.006255298119697645 -0.008216565607683477 -0.003436600078449168 -0.007411967462642501 0.17271146756552444
0.009640010317586585 -0.009218084558591933 0.003382426981788946 -0.0015659218744335773 -0.001368276754204199 -0.0044645040180587995 0.003962012249863986 0.0014777851219929753
0.0023522275538562544 0.24067373928345262 -0.007054501728367429 -0.009175560622755574 0.0013859208529816633 -0.004256284894969152 0.0025022262903296264 0.009097548790842168
-0.00020414833709989262 -0.00038274662587640083 0.00021070450423753967 -0.002905796140742217 0.005925514463584263 0.0040347816692420276 0.00400006439351064 0.007929321793392374
0.00014269643526185379 0.0006037432763141195 0.006055439858340542 -0.009319281010901495 0.0061995278796041515 0.0010255380110314647 -0.002443941235950277 -0.0003711259816133553
-0.0031980130125624307 0.004122763825854312 0.008495111653916669 0.004402826154810722 -0.006631457443052677 -0.002270252263122734 0.004068051974148661 -0.0016376365933542815
-0.0056806388140979505 0.007449897867625768 -0.004384346963012007 -0.004411894660501668 0.0062096693020706525 -0.001842479544350857 0.0015427263460345755 0.006736043416785952
-0.008737265052379775 -0.00014460909034310493 0.004958847372211031 0.004698326991585784 0.007793467255035115 0.009691480965687572 0.006815630692458373 -0.009454229880353255
0.0007123685532289918 0.002778081469302524 -0.006733172870839854 0.009868484380071952 -0.0008151443624959599 -0.00743559170396234 0.009608863953580987 0.006642695025207734
0.003424622233091758 0.0018989852649804236 0.0032488526074293065 -0.005664391969857121 0.005658581560561654 -0.007472693709139461 0.002102283211160682 5.903705546257507e-05
-0.006925487651110101 0.006873210891037472 0.0019065536783141775 0.004000187796015037 0.0023686894469285846 -0.008145360746849144 -0.0021538888035718684 -0.007744746806162502
0.0024832546746733145 0.00950770501713785 0.008154837991096748 -0.007082096858052274 -0.001478270918027021 0.0026586350684359526 0.0068271598742106875 -0.0057769183801831955
-0.002304208737636469 0.0004004114042073444 -0.005226163024458632 0.004433969743704573 0.007472305286822847 0.006146319533872896 -0.008416850144410678 -0.00572177696518231
0.00018498823108700942 -0.0034953053170337653 0.004947680143069143 -0.14932668908414384 -0.0010063181502113572 0.0051823652290582285 0.005986056597983699 0.007630400407911847
0.002413982364138747 0.005529473976744614 0.00868949377591221 0.002131297578878961 0.001904684410436372 -0.25277451740033147 0.007360417333134294 -0.007145819322329292
-0.008126544479134815 0.0029365518504768304 0.003751279663477396 0.006771355935219591 0.0029089838677487274 -0.004705989503860184 -0.004319900603607178 0.007793032750347889
-0.0014504107918663447 -0.005207173191128671 0.008367948225267282 -0.0033886503727720667 0.007426174681774237 -0.00848020864505674 -0.0017091956677676972 -0.007569791113974191
0.0026808133379182517 -0.008212570142782625 0.007978684087171317 -0.006411031184811864 -0.007155537705766768 0.009084755102175443 0.00010620303596912788 0.0034122185675956665
0.008590630326131521 0.006833378995701149 -0.00735552469891621 0.009268954629831775 -0.004307571113908394 0.005963517350274087 -0.008639062131756753 -0.0034660581243440717
-0.005904018456048135 -0.009806649695625618 0.006333536997974133 -0.0012974489100229976 -0.008449072353929343 -0.0008604522838822289 0.0038369851910398404 -0.009927719243151193
-0.006182252057061173 0.005888720941862274 0.00807433423507392 0.0008637890056104117 -0.0049879556034637005 0.005174659978714665 -0.006303346541220316 -0.0025050692855483727
0.0247875594167908 0.0006153291320086744 0.006336364649649052 0.0038854679335330756 0.004558722529167548 0.001998258402232833 0.009466905335947006 0.003183458147566416
0.007280298849522691 -0.006531058899489165 -0.030998679731227146 0.005236280477339793 0.0035043336080807334 0.0074775223708517646 -0.004934586128944761 -0.005496253219619416
-0.0032583760978126272 0.0031590735809744613 -0.005801200091392831 -0.0007443332505187654 0.0016472985439170672 0.0021727272698592354 0.0031547332501577537 0.005245062409619909
-0.0029558346707032283 0.007028801549617726 -0.005263035595913056 0.0009100365661759156 0.002537327536619958 -0.0015536919596284295 -0.002101265433348652 0.0036146139105944983
-0.004053517503995443 0.005135697626988825 -0.004563485991564162 -0.004879220095987158 0.0036045841953603066 0.009006251180200545 -0.005971170340615839 0.00034560628366875866
0.0030325839904113867 -0.005619802753382634 -0.00948427405409268 -0.0025262305585007794 -0.0029522159110671464 0.005192277527156272 -0.0023892466825535565 -0.00939301983427164
0.0067033113132255965 0.000567209757063594 0.0017770233169743417 -0.0008227900234771841 0.0053424736409869705 0.00944167262956785 0.00540072564230008 -0.0013528476462581884
0.002707470095239608 0.00741094155922982 -0.003085306575337501 -0.006125074044733237 0.00868437656550826 0.006210533197456606 -0.005044560629832415 -0.0008718120562435025
0.005692914997815367 0.007084629076458423 0.0027940313372401653 0.0030935063084484658 -0.007407991331547953 0.006305838719154051 0.0074653814930924715 -0.002809006157628624
-0.0006898523277466158 0.009979914283733076 -0.0009461657937258165 -0.002647115091444845 -0.0010230165168909934 -0.0017752039559164705 0.0010671359929349607 -0.006175500565386422
