Assignment3/ExpertAgent/critic.pkl (npy, 80128 bytes, 1 tensors)

array f8 [10, 10, 10, 10]
000000 08 7a cc 45 a4 79 58 3f ae 68 95 13 8a 20 7e 3f
       0.0014938453888998521 0.00735525070316549
000010 f0 03 67 93 e4 83 4b 3f 0a 58 86 ae 0c bf 76 bf
       0.0008396974652030691 -0.005553292787586992
000020 e9 7f b7 16 28 4b ea 3f 5a 75 7d f4 28 52 01 40
       0.8216743892371571 2.1651171780382983
000030 db f8 67 da 8a a7 cf 3f cb 64 da 15 23 35 84 3f
       0.24730048813211777 0.009866975883868886
000040 e3 bc 9b 7d a5 95 81 3f b8 fe e8 5b 5f b9 5d 3f
       0.008586209197771704 0.001814215778395507
000050 88 9e 1b de 3a b1 54 bf e2 76 4b 01 04 77 62 bf
       -0.0012629580382340928 -0.0022540167068275533
000060 b4 d5 45 a6 c6 80 7a bf 78 81 4a 18 ad ee 57 3f
       -0.006470466589566671 0.001460713422751862
000070 1e 2e 36 c3 65 ad 73 3f cc 2a e8 17 d0 b0 11 40
       0.00480403662676168 4.422668813271866
000080 34 c7 21 21 88 5c 01 40 d7 ec b9 00 65 a0 75 bf
       2.1701815212662954 -0.005279917280513766
000090 b4 10 8f 1c 91 95 6d 3f 0c 6e 5c 66 bc da 62 3f
       0.003611358090411876 0.0023015670475510282
0000a0 2a 3f 2a fe 61 ba 83 bf c8 06 6d 12 94 fa 74 3f
       -0.00963284069919686 0.005121782690197647
0000b0 60 b0 44 a6 15 15 41 3f a4 17 0f 62 72 f2 60 bf
       0.0005213123045329053 -0.002068732647304965
0000c0 6e 37 75 e8 33 4a 72 3f 90 0e c1 aa bd 2b 14 40
       0.004465296521926605 5.042715709717996
0000d0 7e ed 7f 8f 02 f3 03 40 e0 29 86 5f 10 23 cf 3f
       2.493657227603477 0.24325756706487223
0000e0 a2 93 5b 7b cc 09 7a 3f 62 4b ca a4 82 e0 71 3f
       0.006357001073159648 0.0043645003576270065
0000f0 0a 65 e6 bd f6 96 69 bf 21 a9 0c 51 bd 24 77 bf
       -0.0031237429786413794 -0.005650271909681843
000100 c9 f7 bd 3f 61 59 82 3f b6 b2 d6 e3 84 d6 78 bf
       0.008959541089776384 -0.006063956357519265
000110 4c 86 6e c8 f2 a0 f0 3f d6 18 5f 59 15 63 06 40
       1.0392940358509746 2.7983805639406496
000120 07 be e0 44 5c 99 00 40 34 a8 26 82 d2 29 6b 3f
       2.074883020504561 0.0033158408634408557
000130 aa ef 63 57 de 86 7e 3f 1f a3 62 76 b8 89 73 bf
       0.0074528393945420355 -0.004770012432495445
000140 50 90 8d 2e 1f 85 7f bf c6 ce 74 4f 08 50 71 3f
       -0.00769531422051635 0.00422671552887594
000150 31 95 ad bc 03 88 70 bf 54 d1 d0 41 01 6c 7c bf
       -0.004035963628529247 -0.006938939009206575
000160 e8 7f 0d ca 4f ed 51 3f 76 7c 46 63 59 df 0a 40
       0.0010941771690440253 3.359057212437217
000170 24 06 f6 ae 8d aa 09 40 22 14 7e 50 3b aa ef 3f
       3.208278052218491 0.9895302364462888
000180 68 32 34 4a 31 6a 5c bf 20 60 c2 dc f8 3a 61 3f
       -0.001734302649143116 0.0021033154099079493
000190 00 b1 05 9c 2e ba 3c bf d0 11 b1 77 88 44 49 bf
       -0.00043834340978922415 -0.000771109232467421
0001a0 00 44 f7 ac a7 b2 1c bf 8d 4f 57 77 bf de 82 3f
       -0.0001094736901372656 0.009213920430660294
0001b0 28 1e 41 f2 a9 12 82 bf 5a e4 8f 2d a6 27 05 40
       -0.008824660974041512 2.644359928086982
0001c0 ed 30 c7 a5 31 05 06 40 8e 85 9c d7 67 c8 fb 3f
       2.752536101476031 1.7364271566696945
0001d0 52 d9 da ae 0f 92 7b bf ae 18 70 b7 98 5b 78 3f
       -0.006731091749023159 0.005946728276290765
0001e0 10 b8 15 32 19 34 73 3f a8 68 60 d1 c6 36 6b 3f
       0.00468835680054093 0.003322017971197761
0001f0 c4 7f 47 54 c3 51 61 bf 24 00 44 00 7b 80 61 3f
       -0.002114182951331119 0.0021364595760360473
000200 4f d3 f3 fa cd 30 76 bf e6 ec 88 66 c7 a6 e9 3f
       -0.0054176374535373625 0.8016087534555509
000210 55 47 8d 14 72 a5 05 40 61 ed 9f 09 12 c2 04 40
       2.705783997117502 2.594760966485112
000220 26 b8 7a 47 76 23 7c 3f d8 1c ae e0 3f de 64 3f
       0.006869756725491205 0.0025473830805285806
000230 d8 09 f3 13 04 0a 82 bf f4 20 e8 0f 33 21 6f 3f
       -0.008808166369253564 0.0038000104243601732
000240 4d bd 5f 3a aa 3b 84 bf 0c 44 3d 56 33 92 83 bf
       -0.009879426866943897 -0.009556199139895603
000250 29 9c ea 7a 7b ab 80 bf 83 b5 d4 b0 9f 3a 75 bf
       -0.008139576614963744 -0.005182861129737207
000260 81 c9 a2 5c 00 2d 0c 40 eb de d0 39 7b ab fe 3f
       3.521973346441144 1.9168655641969348
000270 71 18 f7 c3 7f 4c e7 3f 40 c6 78 8a d6 01 52 3f
       0.7280882670827521 0.0010990710378674523
000280 39 76 28 fc 69 60 82 3f 3c 51 57 04 a1 6a 83 bf
       0.008972957618477927 -0.009480722374896382
000290 de 9a 6d b9 9a c3 74 3f 00 2d 70 45 31 49 32 bf
       0.005069355384739819 -0.0002790208140488054
0002a0 c8 ef c8 ef 62 f6 7b bf 63 d7 d8 a9 21 40 81 3f
       -0.006826769324614852 0.008423102374859054
0002b0 30 26 e1 0d 4f 65 fb 3f fc 83 10 2d 98 c0 f3 3f
       1.7122335951011216 1.2345201263744903
0002c0 a8 4d 80 fd f0 d7 83 bf f4 c7 48 c6 a9 65 7a bf
       -0.009689219223253456 -0.006444609815433811
0002d0 71 c3 f7 40 3b 66 83 bf da 03 4d 6d f3 b3 78 bf
       -0.009472334785614685 -0.006030989538715803
0002e0 ae 20 19 74 b2 08 6d bf e8 65 81 c3 eb 73 53 bf
       -0.0035441861553274423 -0.001187305677396439
0002f0 dc b3 08 c0 37 70 71 3f 40 be 7a 67 0f ae 35 bf
       0.004257409833866323 -0.0003308093650770984
000300 08 f2 cf da 41 23 e0 3f df c3 b7 55 31 5a c8 3f
       0.5043038629224279 0.19025246320191422
000310 bc b1 27 f2 2e 63 4e 3f fc 09 fb 9e 2b 49 76 3f
       0.0009273509243122239 0.005440874476053011
000320 aa 41 fc 3a 5d bd 77 3f 7c 6f 0e 18 f5 54 67 bf
       0.005795826131148743 -0.002848128031883888
000330 20 b2 7a 1d 9d 65 5b 3f 24 71 b6 92 d1 97 71 3f
       0.00167217582012847 0.00429517616739997
000340 b9 39 bf 94 77 9a 02 40 06 f9 40 23 43 4d 01 40
       2.325423395238627 2.162725711269675
000350 e2 d4 f5 26 e7 81 7f bf 00 06 b6 f3 4a 19 23 bf
       -0.007692244470822037 -0.00014571227971420242
000360 03 23 42 29 98 58 73 bf e0 5f 99 49 99 72 3e 3f
       -0.00472316205935708 0.00046459429140588253
000370 79 6e a2 7f be a5 80 3f 98 6d 19 f3 50 27 5e bf
       0.008128631849380273 -0.0018404284022811353
000380 ed 3d 70 7f 67 ab 80 bf 4a ac cd 6b ea c6 ef 3f
       -0.008139427734959315 0.9930317025695186
000390 4e 5d 79 be 9f dc 0a 40 40 1a fc 29 ce 1e 13 40
       3.3577265625751016 4.780083328258627
0003a0 c1 21 70 e5 9b 0d dc 3f 76 db de ac b9 16 64 bf
       0.4383306255918136 -0.0024522425146317707
0003b0 62 d3 5e e7 3b b7 7e bf a4 70 7e 84 be 05 82 bf
       -0.0074989643089125885 -0.008800018709557662
0003c0 62 b7 0f 05 c0 3e 79 3f c7 47 dd 4b 49 29 83 3f
       0.006163358762007439 0.009356091144272839
0003d0 b4 a4 7a eb 4d ef 63 bf 40 cd bb 1b ed aa 6c bf
       -0.0024334451553228113 -0.0034994727155834016
0003e0 24 34 8a b7 5f f4 18 40 b9 c4 54 63 d5 29 16 40
       6.2386463811972455 5.540853073166709
0003f0 b8 7c 5b 3e 95 e4 db 3f 12 d0 ba d4 d3 54 7a 3f
       0.4358265980681142 0.006428554024456206
000400 0e 98 04 39 47 aa 7e 3f cd b5 20 d8 6e 94 75 bf
       0.007486608709120558 -0.005268509850834002
000410 51 a9 52 74 80 1e 84 bf bc 88 91 41 51 18 6f 3f
       -0.009823802518742627 0.003795775130627536
000420 04 f8 58 00 60 9a 6d 3f 24 fd 6f 4a 71 a7 63 3f
       0.003613650801326253 0.0023991787634255624
000430 b9 e9 36 0d 51 fd 02 40 af 7f 14 cc a2 52 10 40
       2.3736897499449836 4.0806991469871
000440 9b 15 9b 7a 7b c0 0b 40 e0 45 aa 30 6d 37 30 3f
       3.4689855173662187 0.0002474443032634815
000450 f3 21 a1 ca 0f d4 77 bf 94 92 d8 c1 b0 54 74 3f
       -0.005817472158078807 0.004963579614501019
000460 fe b3 e3 74 35 4c 7c bf 02 02 f0 27 35 4c 75 3f
       -0.006908615889398282 0.005199630394600254
000470 90 fa b1 9f e9 14 45 bf 86 53 81 0e 49 2a 79 bf
       -0.0006433621159798886 -0.00614384210355901
000480 78 5e 3f f7 31 81 fa 3f 30 dd da 09 e3 18 13 40
       1.6565417917353482 4.77430358312931
000490 15 95 89 52 cf dd 12 40 90 49 77 93 70 2d 7a bf
       4.716611184737549 -0.0063909909726639486
0004a0 5c fe e5 6b cd b9 71 bf 48 fc a5 5f 29 ca 6e 3f
       -0.004327585628174892 0.003758507545341714
0004b0 38 af d1 2c 42 a1 7d bf 18 05 47 f2 4a 29 50 3f
       -0.007233866211304556 0.0009864074610138104
0004c0 02 04 51 e9 a0 06 7e bf 98 a3 fe eb 4a 90 61 bf
       -0.0073305402375476465 -0.002143999416109609
0004d0 7c 9c d1 c0 ac 0c 61 bf f6 81 c2 b1 14 fd 12 40
       -0.0020812391363054777 4.74714925527268
0004e0 c0 26 76 2b fc 66 0d 40 c7 4d b2 76 a3 3f 84 3f
       3.6752856631690918 0.009887005863027277
0004f0 80 d2 68 85 e0 68 49 bf e6 0b 1d 5c d2 d1 79 3f
       -0.0007754417700370358 0.006303617208518885
000500 a0 0d 45 34 66 92 33 3f 4d 94 64 9b 61 39 84 bf
       0.00029864306658941055 -0.009875071100916477
000510 d7 65 af cf 22 d3 76 bf 60 1f 87 2c 93 d0 31 3f
       -0.00557244871284853 0.000271831446778217
000520 df 4a 06 90 f8 fd e6 3f a6 42 cf 5d 75 64 0e 40
       0.7185023129444196 3.7990519837261045
000530 51 30 2e 71 05 91 08 40 b1 6c 44 57 82 84 ee 3f
       3.0708111612530407 0.9536754326285487
000540 8c 70 48 b0 26 63 66 3f da af b3 6c 89 eb 78 bf
       0.0027328258168051785 -0.0060840004109472216
000550 1f 93 84 12 10 45 83 3f 75 17 c3 27 78 81 80 3f
       0.009409070553894559 0.008059443200533182
000560 ee d9 5c 04 ad 92 70 3f 5e 33 06 ae 5b d4 7a 3f
       0.004046130988902592 0.006550176738881001
000570 30 43 b3 26 3b fb 46 3f c2 a2 c4 dd 21 1f 0c 40
       0.0007013357948385309 3.515201313556049
000580 78 4b f3 a3 aa a5 09 40 a4 b3 96 b6 7b 9d f0 3f
       3.205891877043026 1.038448060261751
000590 7d c9 b3 c1 8b c2 81 3f 00 c2 64 af f4 6d ff be
       0.008671848152947298 -2.997352108841285e-05
0005a0 00 35 47 ea 75 65 10 3f 00 a7 98 6e e5 4c 75 bf
       6.254703709559009e-05 -0.005200287073913179
0005b0 3e 77 01 67 8f 27 6f bf e5 9a 5c e3 7d 97 82 3f
       -0.0038030434443915564 0.009078010083226793
0005c0 98 8e d6 8b 48 12 63 3f 58 ee 8b 78 23 9f 08 40
       0.002328054134254586 3.077704374094349
0005d0 eb b1 4f 80 ad 57 01 40 f6 b3 a0 aa a5 29 fa 3f
       2.1678113960572225 1.6351677575250938
0005e0 16 3b b4 d8 82 9f 7a 3f b8 0f fc bd 95 e1 63 bf
       0.006499777907506018 -0.0024269032145429435
0005f0 36 c9 f6 ec e1 ec 72 3f 95 f4 f5 12 75 76 84 bf
       0.004620440027269182 -0.009991564408432555
000600 5b 0d 95 b0 b4 90 83 3f 7a 7e 2e 03 0d 5f 64 bf
       0.009553348196851877 -0.00248673001756555
000610 53 0a 60 3f 72 e2 80 3f 22 e4 b9 ed ea 2d e0 3f
       0.008244412001663514 0.505605186756956
000620 da 6f 5f ca 57 57 dc 3f c6 4f e4 2a 9b b2 d5 3f
       0.4428309894844894 0.3390262526384017
000630 36 8c 6f a7 f0 fc 72 bf be fa e2 5f 2d 68 7a bf
       -0.004635753683916602 -0.006447007412303916
000640 c6 c3 a0 92 17 1b 7d 3f 8a c0 78 f6 45 09 7f bf
       0.007105915146937874 -0.007577203075513359
000650 25 72 6f 7c b2 0f 6b bf 1b cc 74 be cc 3f f3 3f
       -0.0033033834510958365 1.2030761184403278
000660 a4 b0 82 c3 80 58 fc 3f ea c3 74 c2 10 06 e8 3f
       1.771607173645898 0.7507404134722695
000670 41 89 79 cc 79 bd 80 3f 06 34 aa 12 78 5c 7f 3f
       0.008173896362852264 0.007656544718554597
000680 70 57 1a 70 cb 8b 52 bf 24 73 fa 2d 1e 72 62 bf
       -0.0011319624613057265 -0.0022516812749259364
000690 40 64 4c bb bf 7e 80 bf 2e b3 30 ac 8b 6e 75 bf
       -0.008054254439729402 -0.005232377620853863
0006a0 ac b5 4e 52 61 9b d0 3f a4 aa 16 b7 b2 68 03 40
       0.25948365247571803 2.4261221221725737
0006b0 99 0e bd e6 02 b9 0d 40 6c e1 ed f1 1d b5 09 40
       3.7153375650830864 3.2134360218735107
0006c0 da 6d b9 04 6f 0f 76 bf 6f 61 7d 0a 6b e5 80 3f
       -0.005385812440717308 0.008250080354330362
0006d0 c2 bb 31 a9 c4 3a 7e 3f b7 2c a5 40 c4 6d 82 3f
       0.007380264479350753 0.008998425696196894
0006e0 76 04 e4 61 3f ad 7f bf e8 c8 ba 68 6f 32 59 3f
       -0.0077335811495241515 0.001537903593015028
0006f0 dc b1 b3 67 a2 93 78 bf de 20 af 00 65 ee 07 40
       -0.006000170130601803 2.991403584808821
000700 84 30 2a e8 7f 73 0f 40 fd c2 3e 18 cc 00 09 40
       3.931396306788942 3.125389279761633
000710 7c b6 aa 7b 59 33 6a 3f 78 72 5f 2f 4a 76 51 3f
       0.003198313495281378 0.0010658001387958953
000720 52 8b 6f 70 54 79 65 bf 00 f1 27 b7 67 f4 04 3f
       -0.0026213311389126437 3.996793283886531e-05
000730 5e 96 3d c4 a4 8c 80 bf c8 a7 c4 00 17 b0 6f bf
       -0.008080756415164089 -0.003868145873771465
000740 48 c7 c5 d2 ee df 70 bf 90 8e 81 78 bd 23 fa 3f
       -0.0041198090587942285 1.6337256152409374
000750 ef b5 44 c7 a3 97 15 40 a2 2a 6e b1 5f 49 15 40
       5.398085702484862 5.321654102658302
000760 be 56 2f 60 a9 58 62 bf 64 10 34 58 72 d9 75 bf
       -0.0022395427817894767 -0.005334326418282218
000770 b2 21 98 37 84 9a 83 bf 5c 08 db 68 90 67 80 bf
       -0.009572060534097957 -0.008010032844485142
000780 14 a6 87 1e a5 e7 6b bf 3d 6f 60 a4 1b 3b 80 3f
       -0.0034063553796286426 0.007925239519003585
000790 d6 e8 89 53 f0 29 84 bf 4a a6 33 b3 99 1d d4 3f
       -0.009845616864584999 0.3143066644684934
0007a0 c8 cf d9 3c 26 62 15 40 cb 1c 80 b6 ce 75 18 40
       5.345848990244072 6.115046359605183
0007b0 48 d5 17 0f 3b d7 82 bf 28 f1 94 3b 9d 1a 68 3f
       -0.009199582479576876 0.0029423781349163965
0007c0 10 4d 37 d4 d0 52 69 bf 8d f0 44 58 73 49 74 bf
       -0.00309124743373846 -0.004952860417969285
0007d0 5f 10 2c 96 82 d0 75 bf cd 27 9f 3b 31 b9 75 bf
       -0.00532580385584333 -0.0053035662803697205
0007e0 45 d9 1c 42 52 2c 83 3f 7d 8e 7b d3 1c f2 80 3f
       0.009361879961585226 0.008274293140352324
0007f0 a3 fc 87 7b 59 01 0e 40 9f d3 a2 9d 44 31 10 40
       3.7506589556574723 4.048113310874128
